…
2025-04-23 00:59:17,832 - INFO - Arguments: Namespace(fasta_file='data/clean_seq_download.fasta', seq_len=150, noise_dim=100, hidden_dim=512, num_layers=2, num_epochs=500, batch_size=64, lr_g=0.0001, lr_d=0.0001, temperature=1.0, n_critic=5, lambda_gp=10.0, checkpoint_dir='checkpoints/improved_dna_gan', log_interval=1, save_interval=10, resume=None, seed=42, no_cuda=False, num_workers=4)
2025-04-23 01:05:04,534 - INFO - Arguments: Namespace(fasta_file='data/clean_seq_download.fasta', seq_len=150, noise_dim=100, hidden_dim=512, num_layers=2, num_epochs=500, batch_size=64, lr_g=0.0001, lr_d=0.0001, temperature=1.0, n_critic=5, lambda_gp=10.0, checkpoint_dir='checkpoints/improved_dna_gan', log_interval=1, save_interval=10, resume=None, seed=42, no_cuda=False, num_workers=4)
2025-04-23 01:05:10,677 - INFO - Generator architecture:
ImprovedGenerator(
  (fc_hidden): Linear(in_features=100, out_features=1024, bias=True)
  (fc_cell): Linear(in_features=100, out_features=1024, bias=True)
  (lstm): LSTM(512, 512, num_layers=2, batch_first=True, dropout=0.2)
  (attention): SelfAttention(
    (query): Linear(in_features=512, out_features=512, bias=True)
    (key): Linear(in_features=512, out_features=512, bias=True)
    (value): Linear(in_features=512, out_features=512, bias=True)
  )
  (layer_norm): LayerNorm((512,), eps=1e-05, elementwise_affine=True)
  (fc): Linear(in_features=512, out_features=4, bias=True)
  (dropout): Dropout(p=0.3, inplace=False)
)
2025-04-23 01:05:10,678 - INFO - Discriminator architecture:
ImprovedDiscriminator(
  (conv1): Conv1d(4, 64, kernel_size=(3,), stride=(1,), padding=(1,))
  (conv2): Conv1d(64, 128, kernel_size=(3,), stride=(1,), padding=(1,))
  (conv3): Conv1d(128, 256, kernel_size=(3,), stride=(1,), padding=(1,))
  (pool): MaxPool1d(kernel_size=2, stride=2, padding=0, dilation=1, ceil_mode=False)
  (fc1): Linear(in_features=4608, out_features=256, bias=True)
  (fc2): Linear(in_features=256, out_features=1, bias=True)
  (layer_norm1): LayerNorm((64, 150), eps=1e-05, elementwise_affine=True)
  (layer_norm2): LayerNorm((128, 75), eps=1e-05, elementwise_affine=True)
  (layer_norm3): LayerNorm((256, 37), eps=1e-05, elementwise_affine=True)
  (dropout): Dropout(p=0.3, inplace=False)
)
2025-04-23 01:11:24,481 - INFO - Arguments: Namespace(fasta_file='data/preprocessed_dna_sequences.fasta', seq_len=150, noise_dim=100, hidden_dim=512, num_layers=2, num_epochs=500, batch_size=64, lr_g=0.0001, lr_d=0.0001, temperature=1.0, n_critic=5, lambda_gp=10.0, checkpoint_dir='checkpoints/improved_dna_gan', log_interval=1, save_interval=10, resume=None, seed=42, no_cuda=False, num_workers=4)
2025-04-23 01:11:30,905 - INFO - Generator architecture:
ImprovedGenerator(
  (fc_hidden): Linear(in_features=100, out_features=1024, bias=True)
  (fc_cell): Linear(in_features=100, out_features=1024, bias=True)
  (lstm): LSTM(512, 512, num_layers=2, batch_first=True, dropout=0.2)
  (attention): SelfAttention(
    (query): Linear(in_features=512, out_features=512, bias=True)
    (key): Linear(in_features=512, out_features=512, bias=True)
    (value): Linear(in_features=512, out_features=512, bias=True)
  )
  (layer_norm): LayerNorm((512,), eps=1e-05, elementwise_affine=True)
  (fc): Linear(in_features=512, out_features=4, bias=True)
  (dropout): Dropout(p=0.3, inplace=False)
)
2025-04-23 01:11:30,905 - INFO - Discriminator architecture:
ImprovedDiscriminator(
  (conv1): Conv1d(4, 64, kernel_size=(3,), stride=(1,), padding=(1,))
  (conv2): Conv1d(64, 128, kernel_size=(3,), stride=(1,), padding=(1,))
  (conv3): Conv1d(128, 256, kernel_size=(3,), stride=(1,), padding=(1,))
  (pool): MaxPool1d(kernel_size=2, stride=2, padding=0, dilation=1, ceil_mode=False)
  (fc1): Linear(in_features=4608, out_features=256, bias=True)
  (fc2): Linear(in_features=256, out_features=1, bias=True)
  (layer_norm1): LayerNorm((64, 150), eps=1e-05, elementwise_affine=True)
  (layer_norm2): LayerNorm((128, 75), eps=1e-05, elementwise_affine=True)
  (layer_norm3): LayerNorm((256, 37), eps=1e-05, elementwise_affine=True)
  (dropout): Dropout(p=0.3, inplace=False)
)
2025-04-23 01:28:18,994 - INFO - Arguments: Namespace(fasta_file='data/preprocessed_dna_sequences.fasta', seq_len=150, noise_dim=100, hidden_dim=512, num_layers=2, num_epochs=500, batch_size=64, lr_g=0.0001, lr_d=0.0001, temperature=1.0, n_critic=5, lambda_gp=10.0, checkpoint_dir='checkpoints/improved_dna_gan', log_interval=1, save_interval=10, resume=None, seed=42, no_cuda=False, num_workers=4)
2025-04-23 01:28:24,540 - INFO - Generator architecture:
ImprovedGenerator(
  (fc_hidden): Linear(in_features=100, out_features=1024, bias=True)
  (fc_cell): Linear(in_features=100, out_features=1024, bias=True)
  (lstm): LSTM(512, 512, num_layers=2, batch_first=True, dropout=0.2)
  (attention): SelfAttention(
    (query): Linear(in_features=512, out_features=512, bias=True)
    (key): Linear(in_features=512, out_features=512, bias=True)
    (value): Linear(in_features=512, out_features=512, bias=True)
  )
  (layer_norm): LayerNorm((512,), eps=1e-05, elementwise_affine=True)
  (fc): Linear(in_features=512, out_features=4, bias=True)
  (dropout): Dropout(p=0.3, inplace=False)
)
2025-04-23 01:28:24,541 - INFO - Discriminator architecture:
ImprovedDiscriminator(
  (conv1): Conv1d(4, 64, kernel_size=(3,), stride=(1,), padding=(1,))
  (conv2): Conv1d(64, 128, kernel_size=(3,), stride=(1,), padding=(1,))
  (conv3): Conv1d(128, 256, kernel_size=(3,), stride=(1,), padding=(1,))
  (pool): MaxPool1d(kernel_size=2, stride=2, padding=0, dilation=1, ceil_mode=False)
  (fc1): Linear(in_features=4608, out_features=256, bias=True)
  (fc2): Linear(in_features=256, out_features=1, bias=True)
  (layer_norm1): LayerNorm((64, 150), eps=1e-05, elementwise_affine=True)
  (layer_norm2): LayerNorm((128, 75), eps=1e-05, elementwise_affine=True)
  (layer_norm3): LayerNorm((256, 37), eps=1e-05, elementwise_affine=True)
  (dropout): Dropout(p=0.3, inplace=False)
)
2025-04-23 01:30:22,046 - INFO - Epoch 1/500 | Time: 116.07s | G Loss: 9.1162 | D Loss: -4.4147 | W Dist: 5.2501 | GP: 0.0835 | GC: 0.5125 | Moran's I: 0.0060 | Diversity: 0.7443
2025-04-23 01:31:32,544 - INFO - Epoch 2/500 | Time: 70.50s | G Loss: 8.3689 | D Loss: -4.9781 | W Dist: 5.8086 | GP: 0.0831 | GC: 0.3590 | Moran's I: 0.2965 | Diversity: 0.7226
…
2025-04-23 08:51:28,620 - INFO - Checkpoint saved to checkpoints/improved_dna_gan\checkpoint_epoch_370.pt
2025-04-23 18:22:53,075 - INFO - Arguments: Namespace(fasta_file='data/preprocessed_dna_sequences.fasta', seq_len=150, noise_dim=100, hidden_dim=512, num_layers=2, num_epochs=500, batch_size=64, lr_g=0.0001, lr_d=0.0001, temperature=1.0, n_critic=5, lambda_gp=10.0, checkpoint_dir='checkpoints/improved_dna_gan', log_interval=1, save_interval=10, resume='checkpoints/improved_dna_gan/checkpoint_epoch_350.pt', seed=42, no_cuda=False, num_workers=4)
2025-04-23 18:23:00,529 - INFO - Generator architecture:
ImprovedGenerator(
  (fc_hidden): Linear(in_features=100, out_features=1024, bias=True)
  (fc_cell): Linear(in_features=100, out_features=1024, bias=True)
  (lstm): LSTM(512, 512, num_layers=2, batch_first=True, dropout=0.2)
  (attention): SelfAttention(
    (query): Linear(in_features=512, out_features=512, bias=True)
    (key): Linear(in_features=512, out_features=512, bias=True)
    (value): Linear(in_features=512, out_features=512, bias=True)
  )
  (layer_norm): LayerNorm((512,), eps=1e-05, elementwise_affine=True)
  (fc): Linear(in_features=512, out_features=4, bias=True)
  (dropout): Dropout(p=0.3, inplace=False)
)
2025-04-23 18:23:00,530 - INFO - Discriminator architecture:
ImprovedDiscriminator(
  (conv1): Conv1d(4, 64, kernel_size=(3,), stride=(1,), padding=(1,))
  (conv2): Conv1d(64, 128, kernel_size=(3,), stride=(1,), padding=(1,))
  (conv3): Conv1d(128, 256, kernel_size=(3,), stride=(1,), padding=(1,))
  (pool): MaxPool1d(kernel_size=2, stride=2, padding=0, dilation=1, ceil_mode=False)
  (fc1): Linear(in_features=4608, out_features=256, bias=True)
  (fc2): Linear(in_features=256, out_features=1, bias=True)
  (layer_norm1): LayerNorm((64, 150), eps=1e-05, elementwise_affine=True)
  (layer_norm2): LayerNorm((128, 75), eps=1e-05, elementwise_affine=True)
  (layer_norm3): LayerNorm((256, 37), eps=1e-05, elementwise_affine=True)
  (dropout): Dropout(p=0.3, inplace=False)
)
2025-04-23 18:23:00,652 - INFO - Resumed training from epoch 350
2025-04-23 18:27:16,801 - INFO - Epoch 351/850 | Time: 254.22s | G Loss: 5.2175 | D Loss: -2.2199 | W Dist: 2.6381 | GP: 0.0418 | GC: 0.4340 | Moran's I: 0.0287 | Diversity: 0.7424
2025-04-23 18:32:56,553 - INFO - Epoch 352/850 | Time: 339.75s | G Loss: 5.6308 | D Loss: -2.2550 | W Dist: 2.7221 | GP: 0.0467 | GC: 0.4622 | Moran's I: 0.0156 | Diversity: 0.7416
